…
host:8080/"},"id":"dYWetLKlxRC4","executionInfo":{"status":"ok","timestamp":1671783521653,"user_tz":-330,"elapsed":1687,"user":{"displayName":"Dr. Swati Vijay Shinde","userId":"11880539230806783066"}},"outputId":"1ae7fa07-c26c-435b-db91-3f16773335f4"},"execution_count":null,"outputs":[{"output_type":"stream","name":"stdout","text":["Model: \"sequential\"\n","_________________________________________________________________\n"," Layer (type)                Output Shape              Param #   \n","=================================================================\n"," conv2d (Conv2D)             (None, 150, 150, 16)      448       \n","                                                                 \n"," max_pooling2d (MaxPooling2D  (None, 75, 75, 16)       0         \n"," )                                                               \n","                                                                 \n"," conv2d_1 (Conv2D)           (None, 75, 75, 32)        4640      \n","                                                                 \n"," max_pooling2d_1 (MaxPooling  (None, 37, 37, 32)       0         \n"," 2D)                                                             \n","                                                                 \n"," conv2d_2 (Conv2D)           (None, 37, 37, 64)        18496     \n","                                                                 \n"," max_pooling2d_2 (MaxPooling  (None, 18, 18, 64)       0         \n"," 2D)                                                             \n","                                                                 \n"," conv2d_3 (Conv2D)           (None, 18, 18, 64)        36928     \n","                                                                 \n"," max_pooling2d_3 (MaxPooling  (None, 9, 9, 64)         0         \n"," 2D)                                                             \n","                                                                 \n"," flatten (Flatten)           (None, 5184)              0         \n","                                                                 \n"," dense (Dense)               (None, 512)               2654720   \n","                                                                 \n"," dense_1 (Dense)             (None, 1)                 513       \n","                                                                 \n","=================================================================\n","Total params: 2,715,745\n","Trainable params: 2,715,745\n","Non-trainable params: 0\n","_________________________________________________________________\n"]}]},{"cell_type":"code","source":["history = model.fit_generator(\n","    train_data_gen,\n
…
lhost:8080/"},"id":"A4jiROjQ27gm","executionInfo":{"status":"ok","timestamp":1671784664950,"user_tz":-330,"elapsed":9,"user":{"displayName":"Dr. Swati Vijay Shinde","userId":"11880539230806783066"}},"outputId":"0fa7c08b-d466-449c-9f36-677da0818a8a"},"execution_count":null,"outputs":[{"output_type":"stream","name":"stdout","text":["Model: \"sequential_2\"\n","_________________________________________________________________\n"," Layer (type)                Output Shape              Param #   \n","=================================================================\n"," conv2d_8 (Conv2D)           (None, 150, 150, 16)      448       \n","                                                                 \n"," max_pooling2d_8 (MaxPooling  (None, 75, 75, 16)       0         \n"," 2D)                                                             \n","                                                                 \n"," dropout_4 (Dropout)         (None, 75, 75, 16)        0         \n","                                                                 \n"," conv2d_9 (Conv2D)           (None, 75, 75, 32)        4640      \n","                                                                 \n"," max_pooling2d_9 (MaxPooling  (None, 37, 37, 32)       0         \n"," 2D)                                                             \n","                                                                 \n"," conv2d_10 (Conv2D)          (None, 37, 37, 64)        18496     \n","                                                                 \n"," max_pooling2d_10 (MaxPoolin  (None, 18, 18, 64)       0         \n"," g2D)                                                            \n","                                                                 \n"," dropout_5 (Dropout)         (None, 18, 18, 64)        0         \n","                                                                 \n"," conv2d_11 (Conv2D)          (None, 18, 18, 64)        36928     \n","                                                                 \n"," max_pooling2d_11 (MaxPoolin  (None, 9, 9, 64)         0         \n"," g2D)                                                            \n","                                                                 \n"," dropout_6 (Dropout)         (None, 9, 9, 64)          0         \n","                                                                 \n"," flatten_2 (Flatten)         (None, 5184)              0         \n","                                                                 \n"," dense_4 (Dense)             (None, 512)               2654720   \n","                                                                 \n"," dropout_7 (Dropout)         (None, 512)               0         \n","                                                                 \n"," dense_5 (Dense)             (None, 1)                 513       \n","                                                                 \n","=================================================================\n","Total params: 2,715,745\n","Trainable params: 2,715,745\n","Non-trainable params: 0\n","_________________________________________________________________\n"]}]},{"cell_type":"code","source":["history = model.fit_generator(\n","    train_data_gen,\n
…
